…
	0.8579	 = Validation score   (accuracy)
	0.97s	 = Training   runtime
	0.06s	 = Validation runtime
Saving AutogluonModels\ag-20240608_102347\models\trainer.pkl
Fitting model: NeuralNetFastAI ...
	Dropped 0 of 14 features.
	Fitting NeuralNetFastAI with 'num_gpus': 0, 'num_cpus': 4
Fitting Neural Network with parameters {'layers': None, 'emb_drop': 0.1, 'ps': 0.1, 'bs': 'auto', 'lr': 0.01, 'epochs': 'auto', 'early.stopping.min_delta': 0.0001, 'early.stopping.patience': 20, 'smoothing': 0.0}...
Using 7/7 categorical features
Using 7 cont features
Automated batch size selection: 256
TabularModel(
  (embeds): ModuleList(
    (0): Embedding(10, 6)
    (1): Embedding(17, 8)
    (2): Embedding(8, 5)
    (3): Embedding(16, 8)
    (4): Embedding(7, 5)
    (5): Embedding(6, 4)
    (6): Embedding(42, 13)
  )
  (emb_drop): Dropout(p=0.1, inplace=False)
  (bn_cont): BatchNorm1d(7, eps=1e-05, momentum=0.1, affine=True, track_running_stats=True)
  (layers): Sequential(
    (0): LinBnDrop(
      (0): Linear(in_features=56, out_features=200, bias=False)
      (1): ReLU(inplace=True)
      (2): BatchNorm1d(200, eps=1e-05, momentum=0.1, affine=True, track_running_stats=True)
      (3): Dropout(p=0.1, inplace=False)
    )
    (1): LinBnDrop(
      (0): Linear(in_features=200, out_features=100, bias=False)
      (1): ReLU(inplace=True)
      (2): BatchNorm1d(100, eps=1e-05, momentum=0.1, affine=True, track_running_stats=True)
      (3): Dropout(p=0.1, inplace=False)
    )
    (2): LinBnDrop(
      (0): Linear(in_features=100, out_features=2, bias=True)
    )
  )
)
Better model found at epoch 0 with accuracy value: 0.8429824709892273.
Better model found at epoch 1 with accuracy value: 0.8600876927375793.
Better model found at epoch 5 with accuracy value: 0.8618420958518982.
Better model found at epoch 6 with accuracy value: 0.8653509020805359.
No improvement since epoch 6: early stopping
Model validation metrics: 0.8653509020805359
…
        "age",
        "education.num",
        "hours.per.week"
    ],
    "skewed": [
        "fnlwgt",
        "capital.gain",
        "capital.loss"
    ],
    "onehot": [],
    "embed": [
        "workclass",
        "education",
        "marital.status",
        "occupation",
        "relationship",
        "race",
        "native.country"
    ],
    "language": [],
    "bool": [
        "sex"
    ]
}


Training data for TabularNeuralNetTorchModel has: 20512 examples, 14 features (7 vector, 7 embedding)
Training on CPU
Neural network architecture:
EmbedNet(
  (embed_blocks): ModuleList(
    (0): Embedding(10, 5)
    (1): Embedding(17, 7)
    (2): Embedding(8, 5)
    (3): Embedding(16, 7)
    (4): Embedding(7, 4)
    (5): Embedding(6, 4)
    (6): Embedding(42, 12)
  )
  (main_block): Sequential(
    (0): Linear(in_features=51, out_features=128, bias=True)
    (1): ReLU()
    (2): Dropout(p=0.1, inplace=False)
    (3): Linear(in_features=128, out_features=128, bias=True)
    (4): ReLU()
    (5): Dropout(p=0.1, inplace=False)
    (6): Linear(in_features=128, out_features=128, bias=True)
    (7): ReLU()
    (8): Dropout(p=0.1, inplace=False)
    (9): Linear(in_features=128, out_features=128, bias=True)
    (10): ReLU()
    (11): Linear(in_features=128, out_features=2, bias=True)
  )
  (softmax): Softmax(dim=1)
)
Training tabular neural network for up to 500 epochs...
Epoch 1 (Update 160).	Train loss: 0.4296, Val accuracy: 0.8447, Best Epoch: 1
Epoch 2 (Update 320).	Train loss: 0.3531, Val accuracy: 0.8482, Best Epoch: 2
Epoch 3 (Update 480).	Train loss: 0.3435, Val accuracy: 0.8491, Best Epoch: 3
Epoch 4 (Update 640).	Train loss: 0.3365, Val accuracy: 0.8474, Best Epoch: 3
…
